[INFO] - Dataset CausalLMDataset was created
[INFO] - Model CausalLMModel was created
[INFO] - Watermark PassthroughWM was created
================ Modifyed model ===================
ModuleList(
  (0): GPT2Block(
    (ln_1): LayerNorm((768,), eps=1e-05, elementwise_affine=True)
    (attn): GPT2Attention(
      (c_attn): Conv1D(nf=2304, nx=768)
      (c_proj): Conv1D(nf=768, nx=768)
      (attn_dropout): Dropout(p=0.1, inplace=False)
      (resid_dropout): Dropout(p=0.1, inplace=False)
    )
    (ln_2): LayerNorm((768,), eps=1e-05, elementwise_affine=True)
    (mlp): GPT2MLP(
      (c_fc): Conv1D(nf=3072, nx=768)
      (c_proj): Conv1D(nf=768, nx=3072)
      (act): NewGELUActivation()
      (dropout): Dropout(p=0.1, inplace=False)
    )
  )
  (1): PtlWithGpt2Block(
    (ptl): PassThroughLayer(
      (linear): Linear(in_features=768, out_features=768, bias=True)
    )
    (block): GPT2Block(
      (ln_1): LayerNorm((768,), eps=1e-05, elementwise_affine=True)
      (attn): GPT2Attention(
        (c_attn): Conv1D(nf=2304, nx=768)
        (c_proj): Conv1D(nf=768, nx=768)
        (attn_dropout): Dropout(p=0.1, inplace=False)
        (resid_dropout): Dropout(p=0.1, inplace=False)
      )
      (ln_2): LayerNorm((768,), eps=1e-05, elementwise_affine=True)
      (mlp): GPT2MLP(
        (c_fc): Conv1D(nf=3072, nx=768)
        (c_proj): Conv1D(nf=768, nx=3072)
        (act): NewGELUActivation()
        (dropout): Dropout(p=0.1, inplace=False)
      )
    )
  )
  (2): GPT2Block(
    (ln_1): LayerNorm((768,), eps=1e-05, elementwise_affine=True)
    (attn): GPT2Attention(
      (c_attn): Conv1D(nf=2304, nx=768)
      (c_proj): Conv1D(nf=768, nx=768)
      (attn_dropout): Dropout(p=0.1, inplace=False)
      (resid_dropout): Dropout(p=0.1, inplace=False)
    )
    (ln_2): LayerNorm((768,), eps=1e-05, elementwise_affine=True)
    (mlp): GPT2MLP(
      (c_fc): Conv1D(nf=3072, nx=768)
      (c_proj): Conv1D(nf=768, nx=3072)
      (act): NewGELUActivation()
      (dropout): Dropout(p=0.1, inplace=False)
    )
  )
  (3): PtlWithGpt2Block(
    (ptl): PassThroughLayer(
      (linear): Linear(in_features=768, out_features=768, bias=True)
    )
    (block): GPT2Block(
      (ln_1): LayerNorm((768,), eps=1e-05, elementwise_affine=True)
      (attn): GPT2Attention(
        (c_attn): Conv1D(nf=2304, nx=768)
        (c_proj): Conv1D(nf=768, nx=768)
        (attn_dropout): Dropout(p=0.1, inplace=False)
        (resid_dropout): Dropout(p=0.1, inplace=False)
      )
      (ln_2): LayerNorm((768,), eps=1e-05, elementwise_affine=True)
      (mlp): GPT2MLP(
        (c_fc): Conv1D(nf=3072, nx=768)
        (c_proj): Conv1D(nf=768, nx=3072)
        (act): NewGELUActivation()
        (dropout): Dropout(p=0.1, inplace=False)
      )
    )
  )
  (4): GPT2Block(
    (ln_1): LayerNorm((768,), eps=1e-05, elementwise_affine=True)
    (attn): GPT2Attention(
      (c_attn): Conv1D(nf=2304, nx=768)
      (c_proj): Conv1D(nf=768, nx=768)
      (attn_dropout): Dropout(p=0.1, inplace=False)
      (resid_dropout): Dropout(p=0.1, inplace=False)
    )
    (ln_2): LayerNorm((768,), eps=1e-05, elementwise_affine=True)
    (mlp): GPT2MLP(
      (c_fc): Conv1D(nf=3072, nx=768)
      (c_proj): Conv1D(nf=768, nx=3072)
      (act): NewGELUActivation()
      (dropout): Dropout(p=0.1, inplace=False)
    )
  )
  (5): PtlWithGpt2Block(
    (ptl): PassThroughLayer(
      (linear): Linear(in_features=768, out_features=768, bias=True)
    )
    (block): GPT2Block(
      (ln_1): LayerNorm((768,), eps=1e-05, elementwise_affine=True)
      (attn): GPT2Attention(
        (c_attn): Conv1D(nf=2304, nx=768)
        (c_proj): Conv1D(nf=768, nx=768)
        (attn_dropout): Dropout(p=0.1, inplace=False)
        (resid_dropout): Dropout(p=0.1, inplace=False)
      )
      (ln_2): LayerNorm((768,), eps=1e-05, elementwise_affine=True)
      (mlp): GPT2MLP(
        (c_fc): Conv1D(nf=3072, nx=768)
        (c_proj): Conv1D(nf=768, nx=3072)
        (act): NewGELUActivation()
        (dropout): Dropout(p=0.1, inplace=False)
      )
    )
  )
  (6-11): 6 x GPT2Block(
    (ln_1): LayerNorm((768,), eps=1e-05, elementwise_affine=True)
    (attn): GPT2Attention(
      (c_attn): Conv1D(nf=2304, nx=768)
      (c_proj): Conv1D(nf=768, nx=768)
      (attn_dropout): Dropout(p=0.1, inplace=False)
      (resid_dropout): Dropout(p=0.1, inplace=False)
    )
    (ln_2): LayerNorm((768,), eps=1e-05, elementwise_affine=True)
    (mlp): GPT2MLP(
      (c_fc): Conv1D(nf=3072, nx=768)
      (c_proj): Conv1D(nf=768, nx=3072)
      (act): NewGELUActivation()
      (dropout): Dropout(p=0.1, inplace=False)
    )
  )
)
[INFO]	transformer.h.1.ptl added to registry
[INFO]	transformer.h.3.ptl added to registry
[INFO]	transformer.h.5.ptl added to registry

---------- model architecture -----------
GPT2LMHeadModel(
  (transformer): GPT2Model(
    (wte): Embedding(50257, 768)
    (wpe): Embedding(1024, 768)
    (drop): Dropout(p=0.1, inplace=False)
    (h): ModuleList(
      (0): GPT2Block(
        (ln_1): LayerNorm((768,), eps=1e-05, elementwise_affine=True)
        (attn): GPT2Attention(
          (c_attn): Conv1D(nf=2304, nx=768)
          (c_proj): Conv1D(nf=768, nx=768)
          (attn_dropout): Dropout(p=0.1, inplace=False)
          (resid_dropout): Dropout(p=0.1, inplace=False)
        )
        (ln_2): LayerNorm((768,), eps=1e-05, elementwise_affine=True)
        (mlp): GPT2MLP(
          (c_fc): Conv1D(nf=3072, nx=768)
          (c_proj): Conv1D(nf=768, nx=3072)
          (act): NewGELUActivation()
          (dropout): Dropout(p=0.1, inplace=False)
        )
      )
      (1): PtlWithGpt2Block(
        (ptl): PassThroughLayer(
          (linear): Linear(in_features=768, out_features=768, bias=True)
        )
        (block): GPT2Block(
          (ln_1): LayerNorm((768,), eps=1e-05, elementwise_affine=True)
          (attn): GPT2Attention(
            (c_attn): Conv1D(nf=2304, nx=768)
            (c_proj): Conv1D(nf=768, nx=768)
            (attn_dropout): Dropout(p=0.1, inplace=False)
            (resid_dropout): Dropout(p=0.1, inplace=False)
          )
          (ln_2): LayerNorm((768,), eps=1e-05, elementwise_affine=True)
          (mlp): GPT2MLP(
            (c_fc): Conv1D(nf=3072, nx=768)
            (c_proj): Conv1D(nf=768, nx=3072)
            (act): NewGELUActivation()
            (dropout): Dropout(p=0.1, inplace=False)
          )
        )
      )
      (2): GPT2Block(
        (ln_1): LayerNorm((768,), eps=1e-05, elementwise_affine=True)
        (attn): GPT2Attention(
          (c_attn): Conv1D(nf=2304, nx=768)
          (c_proj): Conv1D(nf=768, nx=768)
          (attn_dropout): Dropout(p=0.1, inplace=False)
          (resid_dropout): Dropout(p=0.1, inplace=False)
        )
        (ln_2): LayerNorm((768,), eps=1e-05, elementwise_affine=True)
        (mlp): GPT2MLP(
          (c_fc): Conv1D(nf=3072, nx=768)
          (c_proj): Conv1D(nf=768, nx=3072)
          (act): NewGELUActivation()
          (dropout): Dropout(p=0.1, inplace=False)
        )
      )
      (3): PtlWithGpt2Block(
        (ptl): PassThroughLayer(
          (linear): Linear(in_features=768, out_features=768, bias=True)
        )
        (block): GPT2Block(
          (ln_1): LayerNorm((768,), eps=1e-05, elementwise_affine=True)
          (attn): GPT2Attention(
            (c_attn): Conv1D(nf=2304, nx=768)
            (c_proj): Conv1D(nf=768, nx=768)
            (attn_dropout): Dropout(p=0.1, inplace=False)
            (resid_dropout): Dropout(p=0.1, inplace=False)
          )
          (ln_2): LayerNorm((768,), eps=1e-05, elementwise_affine=True)
          (mlp): GPT2MLP(
            (c_fc): Conv1D(nf=3072, nx=768)
            (c_proj): Conv1D(nf=768, nx=3072)
            (act): NewGELUActivation()
            (dropout): Dropout(p=0.1, inplace=False)
          )
        )
      )
      (4): GPT2Block(
        (ln_1): LayerNorm((768,), eps=1e-05, elementwise_affine=True)
        (attn): GPT2Attention(
          (c_attn): Conv1D(nf=2304, nx=768)
          (c_proj): Conv1D(nf=768, nx=768)
          (attn_dropout): Dropout(p=0.1, inplace=False)
          (resid_dropout): Dropout(p=0.1, inplace=False)
        )
        (ln_2): LayerNorm((768,), eps=1e-05, elementwise_affine=True)
        (mlp): GPT2MLP(
          (c_fc): Conv1D(nf=3072, nx=768)
          (c_proj): Conv1D(nf=768, nx=3072)
          (act): NewGELUActivation()
          (dropout): Dropout(p=0.1, inplace=False)
        )
      )
      (5): PtlWithGpt2Block(
        (ptl): PassThroughLayer(
          (linear): Linear(in_features=768, out_features=768, bias=True)
        )
        (block): GPT2Block(
          (ln_1): LayerNorm((768,), eps=1e-05, elementwise_affine=True)
          (attn): GPT2Attention(
            (c_attn): Conv1D(nf=2304, nx=768)
            (c_proj): Conv1D(nf=768, nx=768)
            (attn_dropout): Dropout(p=0.1, inplace=False)
            (resid_dropout): Dropout(p=0.1, inplace=False)
          )
          (ln_2): LayerNorm((768,), eps=1e-05, elementwise_affine=True)
          (mlp): GPT2MLP(
            (c_fc): Conv1D(nf=3072, nx=768)
            (c_proj): Conv1D(nf=768, nx=3072)
            (act): NewGELUActivation()
            (dropout): Dropout(p=0.1, inplace=False)
          )
        )
      )
      (6-11): 6 x GPT2Block(
        (ln_1): LayerNorm((768,), eps=1e-05, elementwise_affine=True)
        (attn): GPT2Attention(
          (c_attn): Conv1D(nf=2304, nx=768)
          (c_proj): Conv1D(nf=768, nx=768)
          (attn_dropout): Dropout(p=0.1, inplace=False)
          (resid_dropout): Dropout(p=0.1, inplace=False)
        )
        (ln_2): LayerNorm((768,), eps=1e-05, elementwise_affine=True)
        (mlp): GPT2MLP(
          (c_fc): Conv1D(nf=3072, nx=768)
          (c_proj): Conv1D(nf=768, nx=3072)
          (act): NewGELUActivation()
          (dropout): Dropout(p=0.1, inplace=False)
        )
      )
    )
    (ln_f): LayerNorm((768,), eps=1e-05, elementwise_affine=True)
  )
  (lm_head): Linear(in_features=768, out_features=50257, bias=False)
)

Total number of network parameters : 126.212 M, of which 1.772 M are trainable

-----------------------------------------
  0%|                                                                                                                                                                                                        | 0/500 [00:00<?, ?it/s]Traceback (most recent call last):
…
